…
2021-01-27 17:29:17.255616: W c:\l\tensorflow_1501918863922\work\tensorflow-1.2.1\tensorflow\core\platform\cpu_feature_guard.cc:45] The TensorFlow library wasn't compiled to use AVX2 instructions, but these are available on your machine and could speed up CPU computations.
2021-01-27 17:29:17.255727: W c:\l\tensorflow_1501918863922\work\tensorflow-1.2.1\tensorflow\core\platform\cpu_feature_guard.cc:45] The TensorFlow library wasn't compiled to use FMA instructions, but these are available on your machine and could speed up CPU computations.
_________________________________________________________________
Layer (type)                 Output Shape              Param #
=================================================================
conv2d_1 (Conv2D)            (None, 24, 24, 4)         104
_________________________________________________________________
activation_1 (Activation)    (None, 24, 24, 4)         0
_________________________________________________________________
conv2d_2 (Conv2D)            (None, 20, 20, 4)         404
_________________________________________________________________
activation_2 (Activation)    (None, 20, 20, 4)         0
_________________________________________________________________
dropout_1 (Dropout)          (None, 20, 20, 4)         0
_________________________________________________________________
flatten_1 (Flatten)          (None, 1600)              0
_________________________________________________________________
dense_1 (Dense)              (None, 16)                25616
_________________________________________________________________
activation_3 (Activation)    (None, 16)                0
_________________________________________________________________
dropout_2 (Dropout)          (None, 16)                0
_________________________________________________________________
dense_2 (Dense)              (None, 10)                170
=================================================================
Total params: 26,294
Trainable params: 26,294
Non-trainable params: 0
_________________________________________________________________
Using TensorFlow backend.
Using TensorFlow backend.
2021-01-27 17:29:22.161977: W c:\l\tensorflow_1501918863922\work\tensorflow-1.2.1\tensorflow\core\platform\cpu_feature_guard.cc:45] The TensorFlow library wasn't compiled to use SSE instructions, but these are available on your machine and could speed up CPU computations.
…
